…
    "execution": {
     "iopub.execute_input": "2024-09-08T19:52:01.260102Z",
     "iopub.status.busy": "2024-09-08T19:52:01.259515Z",
     "iopub.status.idle": "2024-09-08T19:52:01.699667Z",
     "shell.execute_reply": "2024-09-08T19:52:01.698759Z"
    },
    "papermill": {
     "duration": 0.447972,
     "end_time": "2024-09-08T19:52:01.701880",
     "exception": false,
     "start_time": "2024-09-08T19:52:01.253908",
     "status": "completed"
    },
    "tags": []
   },
   "outputs": [
    {
     "data": {
      "text/plain": [
       "RadioNet(\n",
       "  (q_conv): Sequential(\n",
       "    (0): Conv2d(1, 64, kernel_size=(3, 3), stride=(1, 1), padding=(1, 1))\n",
       "    (1): BatchNorm2d(64, eps=1e-05, momentum=0.1, affine=True, track_running_stats=True)\n",
       "    (2): LeakyReLU(negative_slope=0.1)\n",
       "    (3): SEBlock(\n",
       "      (se): Sequential(\n",
       "        (0): AdaptiveAvgPool2d(output_size=1)\n",
       "        (1): Conv2d(64, 4, kernel_size=(1, 1), stride=(1, 1))\n",
       "        (2): ReLU()\n",
       "        (3): Conv2d(4, 64, kernel_size=(1, 1), stride=(1, 1))\n",
       "        (4): Sigmoid()\n",
       "      )\n",
       "    )\n",
       "    (4): Conv2d(64, 128, kernel_size=(3, 3), stride=(1, 1), padding=(1, 1))\n",
       "    (5): BatchNorm2d(128, eps=1e-05, momentum=0.1, affine=True, track_running_stats=True)\n",
       "    (6): LeakyReLU(negative_slope=0.1)\n",
       "    (7): MaxPool2d(kernel_size=2, stride=2, padding=0, dilation=1, ceil_mode=False)\n",
       "    (8): Conv2d(128, 256, kernel_size=(3, 3), stride=(1, 1), padding=(1, 1))\n",
       "    (9): BatchNorm2d(256, eps=1e-05, momentum=0.1, affine=True, track_running_stats=True)\n",
       "    (10): LeakyReLU(negative_slope=0.1)\n",
       "    (11): SEBlock(\n",
       "      (se): Sequential(\n",
       "        (0): AdaptiveAvgPool2d(output_size=1)\n",
       "        (1): Conv2d(256, 16, kernel_size=(1, 1), stride=(1, 1))\n",
       "        (2): ReLU()\n",
       "        (3): Conv2d(16, 256, kernel_size=(1, 1), stride=(1, 1))\n",
       "        (4): Sigmoid()\n",
       "      )\n",
       "    )\n",
       "    (12): MaxPool2d(kernel_size=2, stride=2, padding=0, dilation=1, ceil_mode=False)\n",
       "  )\n",
       "  (i_conv): Sequential(\n",
       "    (0): Conv2d(1, 64, kernel_size=(3, 3), stride=(1, 1), padding=(1, 1))\n",
       "    (1): BatchNorm2d(64, eps=1e-05, momentum=0.1, affine=True, track_running_stats=True)\n",
       "    (2): LeakyReLU(negative_slope=0.1)\n",
       "    (3): SEBlock(\n",
       "      (se): Sequential(\n",
       "        (0): AdaptiveAvgPool2d(output_size=1)\n",
       "        (1): Conv2d(64, 4, kernel_size=(1, 1), stride=(1, 1))\n",
       "        (2): ReLU()\n",
       "        (3): Conv2d(4, 64, kernel_size=(1, 1), stride=(1, 1))\n",
       "        (4): Sigmoid()\n",
       "      )\n",
       "    )\n",
       "    (4): Conv2d(64, 128, kernel_size=(3, 3), stride=(1, 1), padding=(1, 1))\n",
       "    (5): BatchNorm2d(128, eps=1e-05, momentum=0.1, affine=True, track_running_stats=True)\n",
       "    (6): LeakyReLU(negative_slope=0.1)\n",
       "    (7): MaxPool2d(kernel_size=2, stride=2, padding=0, dilation=1, ceil_mode=False)\n",
       "    (8): Conv2d(128, 256, kernel_size=(3, 3), stride=(1, 1), padding=(1, 1))\n",
       "    (9): BatchNorm2d(256, eps=1e-05, momentum=0.1, affine=True, track_running_stats=True)\n",
       "    (10): LeakyReLU(negative_slope=0.1)\n",
       "    (11): SEBlock(\n",
       "      (se): Sequential(\n",
       "        (0): AdaptiveAvgPool2d(output_size=1)\n",
       "        (1): Conv2d(256, 16, kernel_size=(1, 1), stride=(1, 1))\n",
       "        (2): ReLU()\n",
       "        (3): Conv2d(16, 256, kernel_size=(1, 1), stride=(1, 1))\n",
       "        (4): Sigmoid()\n",
       "      )\n",
       "    )\n",
       "    (12): MaxPool2d(kernel_size=2, stride=2, padding=0, dilation=1, ceil_mode=False)\n",
       "  )\n",
       "  (lstm): LSTM(32768, 512, num_layers=2, batch_first=True, dropout=0.3, bidirectional=True)\n",
       "  (layer_norm): LayerNorm((1024,), eps=1e-05, elementwise_affine=True)\n",
       "  (multi_head_attn): MultiHeadAttention(\n",
       "    (attention): MultiheadAttention(\n",
       "      (out_proj): NonDynamicallyQuantizableLinear(in_features=1024, out_features=1024, bias=True)\n",
       "    )\n",
       "  )\n",
       "  (fc): Sequential(\n",
       "    (0): Linear(in_features=1024, out_features=1024, bias=True)\n",
       "    (1): LeakyReLU(negative_slope=0.1)\n",
       "    (2): Dropout(p=0.5, inplace=False)\n",
       "    (3): Linear(in_features=1024, out_features=512, bias=True)\n",
       "    (4): LeakyReLU(negative_slope=0.1)\n",
       "    (5): Dropout(p=0.5, inplace=False)\n",
       "    (6): Linear(in_features=512, out_features=256, bias=True)\n",
       "    (7): LeakyReLU(negative_slope=0.1)\n",
       "    (8): Dropout(p=0.3, inplace=False)\n",
       "    (9): Linear(in_features=256, out_features=64, bias=True)\n",
       "    (10): LeakyReLU(negative_slope=0.1)\n",
       "  )\n",
       "  (output): Linear(in_features=64, out_features=8, bias=True)\n",
       ")"
      ]
     },
     "execution_count": 5,
     "metadata": {},
     "output_type": "execute_result"
    }
   ],
   "source": [
    "# Check if multiple GPUs are available and use them if possible\n",
    "if torch.cuda.device_count() > 1:\n",
    "    print(f\"Let's use {torch.cuda.device_count()} GPUs!\")\n",
    "    # Wrap the model with DataParallel to parallelize across available GPUs\n",
…
